…
":10,"user":{"displayName":"2K20\\CO\\132 Chirag","photoUrl":"https://lh3.googleusercontent.com/a-/AOh14GjPeIEHfWmINfRA348zYMJjGGwYlOpW1wO0sLhx=s64","userId":"11789422786867526988"}},"outputId":"eaf0c928-cdc1-4ea2-f3f4-32102456b5f3"},"source":["\n","model.summary()"],"execution_count":68,"outputs":[{"output_type":"stream","text":["Model: \"sequential_6\"\n","_________________________________________________________________\n","Layer (type)                 Output Shape              Param #   \n","=================================================================\n","conv2d_33 (Conv2D)           (None, 32, 32, 32)        896       \n","_________________________________________________________________\n","conv2d_34 (Conv2D)           (None, 32, 32, 32)        9248      \n","_________________________________________________________________\n","max_pooling2d_18 (MaxPooling (None, 16, 16, 32)        0         \n","_________________________________________________________________\n","dropout_24 (Dropout)         (None, 16, 16, 32)        0         \n","_________________________________________________________________\n","conv2d_35 (Conv2D)           (None, 16, 16, 32)        9248      \n","_________________________________________________________________\n","conv2d_36 (Conv2D)           (None, 16, 16, 64)        18496     \n","_________________________________________________________________\n","max_pooling2d_19 (MaxPooling (None, 8, 8, 64)          0         \n","_________________________________________________________________\n","dropout_25 (Dropout)         (None, 8, 8, 64)          0         \n","_________________________________________________________________\n","conv2d_37 (Conv2D)           (None, 8, 8, 32)          18464     \n","_________________________________________________________________\n","conv2d_38 (Conv2D)           (None, 8, 8, 128)         36992     \n","_________________________________________________________________\n","max_pooling2d_20 (MaxPooling (None, 4, 4, 128)         0         \n","_________________________________________________________________\n","dropout_26 (Dropout)         (None, 4, 4, 128)         0         \n","_________________________________________________________________\n","flatten_6 (Flatten)          (None, 2048)              0         \n","_________________________________________________________________\n","dense_12 (Dense)             (None, 128)               262272    \n","_________________________________________________________________\n","dropout_27 (Dropout)         (None, 128)               0         \n","_________________________________________________________________\n","dense_13 (Dense)             (None, 10)                1290      \n","=================================================================\n","Total params: 356,906\n","Trainable params: 356,906\n","Non-trainable params: 0\n","_________________________________________________________________\n"],"name":"stdout"}]},{"cell_type":"code","metadata":{"id":"mKnpiaZ2Ygbu","colab":{"base_uri":"https://localhost:8080/"},"executionInfo":{"status":"ok","timestamp":1629
…
